customer/data.pth (torch, 15658 bytes, 6 tensors)

l1.weight f4 [8, 256]
00000000: a299 a4bf 43a1 c13f 7144 b7be d890 2dbd
00000010: 94db ed3c ac39 d4bf 0bba d03c 9b6e 50bd
00000020: 0087 943d 96a7 8e3e 5856 283e d0ee 553e
00000030: 8419 853f 5bbd 9d3e 88f5 a33e b0ad 263f
00000040: d6e2 0c40 f30b b0bd b1c3 2dbf f485 64bf
00000050: 82a6 1d3f 28d8 08bf d7fa 3b3e 8805 2dc0
00000060: 1d17 063f 947d 613e b0ba 063e 64ea fc3a
00000070: 7628 d13f fc13 a7bf a2db 1a40 69e0 5d3e
00000080: f9c0 f13e 50ce cb3e 241c 153e 10b4 95bc
00000090: f887 8b3d cfef 00c0 b775 7ebf 0ba4 a5be
000000a0: 95ef 43bf ff73 a9bd a82a a63f 6c6d 72be
000000b0: 6fb7 15bf 0cac 69bf 513b 953f a4da 8cbe
000000c0: d000 853d 1d88 ff3d 2cb4 de3f 15ec d6be
000000d0: e076 02be 7c91 a4bf 7ee4 a63f 2498 913f
000000e0: bb49 373f 6d0b 54bd 7c62 45bd 2924 133f
000000f0: 104f c2bd 78d9 16be 72a9 c83f 6bcd 34be
00000100: 7dc5 bdbe 05c7 be3f 8b81 033f 9adb 183d
00000110: 30a9 573e 73c5 243f 36b0 5e3e 496d 7a3e
00000120: 71d9 2abf eed0 a73f 339c 513f 845b 62c0
00000130: c87c 143f 7d56 3abf 3608 663f f947 85be
00000140: 4c33 55be f9a2 1740 12ea 233f 0e80 5fbe
00000150: a92f 163f 6cf3 1abe ff53 d13f f2c7 25c0
00000160: 9336 a33e f1c7 533e 06a7 fa3f dfbf 383c
00000170: 5c91 493f 9a82 7ebf bfa3 0abf 29e5 0bc0
00000180: 7a93 9abe 3b67 6a3e 2510 9e3f f406 133e
00000190: 654b a83f ee2a ab3f 5095 9b3f 832b 1540
000001a0: f450 5d3f 596d a93f 2ce0 00bf 1dfb f0be
000001b0: 446d cd3f 5b58 1c3f 2972 a53f f42d 5dbf
000001c0: 3451 eb3e 488e 45bf 847a e63c d163 b83f
000001d0: ea09 a33f 5153 47bd cb92 78bc 7cbb 32bf
000001e0: 6874 b83e 1fe3 5dbf 7abc 3b3c 52ff d03f
000001f0: 0410 cc3e 836b 383e 373b 773f d71b d6be
00000200: 909e 233f ea4d fe3e 6ca3 0840 54a7 9ebf
00000210: 77ed cbbe 2585 2dbc e2ac e63c e4dc 2e3d
00000220: c34e 1d3f 4c2e d63f 0041 1a3f dd14 143e
00000230: d79e 80be 56d5 2f3e 8518 e03e eeee 8ebe
00000240: 1284 f13c 0e33 943e f19e 203f 9a05 7a3e
00000250: bd16 c53f 6fb7 81be 7548 7fbe e0b0 0a3f
00000260: ff20 c0be 8841 d3bd 9ae5 783f 3837 51bf
00000270: 622a 0ebe fc94 f6bd a4c3 22bf e04c 6e3f
00000280: 4d5a 723e 02ff a3bf 871f 1640 67cf 133f
00000290: f717 9e3f 92fa 92be 527a 2bbf 7d39 8cbe
000002a0: b0ea b53f 8258 f53e 6a99 0f3f ae93 27bf
000002b0: 1bea c43b 8a65 c23f 44b4 b83e b99e b53e
000002c0: 5f12 ca3f 01e8 1a40 848d e03c 96a4 3dbe
000002d0: deee 6cbf 4351 e2be 63c4 783e 154f 95bf
000002e0: 012a 1abe 4871 d1be f4fb 043d aa2c a83f
000002f0: f4b9 17bf bf25 93be cb2a aabe 3a80 afbc
00000300: a22d 4ebe 3243 90bf 0bba 983e d316 903e
00000310: 30c3 b9bd 45cd 28c0 f5c5 3a3f f9d5 31be
00000320: 2c49 4d3f 6512 8dbf 17c7 093d 2ee7 ff3b
00000330: f0b8 233f 9ef4 8dbe 59ea 28be 59d0 ad3e
00000340: fc32 ee3c 47ad 0f40 0e84 75be 22f2 9a3f
00000350: 3cb1 16be 3b77 1540 f2ec 643e beaf a1bd
00000360: 684f c03e ff9c 0c3e bc26 76bc bdcc b73d
00000370: 1d79 0a40 98f9 373f 539f d93f 08be 353f
00000380: 83fb 64bd d862 4e3e da1a a43f 603e 363e
00000390: a097 b4be 9dff bbbe a293 0940 a01a a23e
000003a0: c92e edbf 7d0a 533d 4e23 3f3f ec9c f13f
000003b0: 08a0 8cbe c991 63bd d829 d73e 5254 32bf
000003c0: 0c59 c63f d8ff 6fbe c73f e13f b8c7 783f
000003d0: 179b 2abf b67b 28bf c975 843c 480b 3b3e
000003e0: 6da7 eb3e 6b79 e83f 0042 2c3f b9b9 7fbf
000003f0: 6cad 12bf 340e 083f 8877 bf3e deb5 9a3e
-1.2859385 1.5127338 -0.35794404 -0.042374462 0.029035367 -1.65801 0.025479337 -0.05088673
0.07252312 0.27862233 0.16439188 0.20891881 1.0398412 0.3080853 0.32023263 0.65108776
2.201345 -0.08596029 -0.67876726 -0.89266896 0.61582196 -0.5345483 0.18357407 -2.7034626
0.5237902 0.2202056 0.13157153 0.0019295928 1.6340473 -1.3052974 2.4196553 0.21667637
0.4721754 0.3980584 0.14561516 -0.018274337 0.06813043 -2.0146368 -0.9939837 -0.32351717
-0.7653745 -0.082740776 1.2981768 -0.23674554 -0.5848302 -0.9127815 1.1658727 -0.2751056
0.064942956 0.124771334 1.7398734 -0.4197699 -0.1274066 -1.2856898 1.303848 1.1374555
0.7159688 -0.05176871 -0.048189625 0.5747705 -0.09487736 -0.14731395 1.5676711 -0.17656486
-0.37064734 1.4904486 0.5136954 0.037318803 0.21060634 0.64363784 0.21746907 0.24455751
-0.6673804 1.3110635 0.81878966 -3.5368357 0.580029 -0.7278822 0.8985628 -0.26031473
-0.2082035 2.369322 0.6402904 -0.21826193 0.58666474 -0.1513192 1.6353759 -2.5903287
0.31877574 0.2068174 1.9582222 0.011276214 0.78737426 -0.9941803 -0.54156107 -2.1858618
-0.3019064 0.22890942 1.2348677 0.14358121 1.3148009 1.3372476 1.2154942 2.3307807
0.8645165 1.3236495 -0.5034206 -0.47066584 1.604897 0.6107232 1.2925464 -0.86398244
0.4596039 -0.7717023 0.028134592 1.4405462 1.27374 -0.04866344 -0.015171717 -0.6981733
0.3602631 -0.86674684 0.0114585105 1.6327918 0.3985597 0.18009762 0.9657473 -0.41818115
0.6391382 0.4966882 2.1349745 -1.2394814 -0.3982961 -0.010590826 0.028158609 0.042691126
0.61448306 1.6732879 0.6025543 0.14461084 -0.25121185 0.17171225 0.43768707 -0.27916664
0.029481921 0.28945202 0.62742525 0.244162 1.5397564 -0.2533526 -0.24929984 0.5417614
-0.37525174 -0.103152335 0.97225344 -0.8172488 -0.13883355 -0.12040135 -0.63579774 0.9308605
0.2366726 -1.2812197 2.3456743 0.57738346 1.2351063 -0.28706795 -0.6698352 -0.2738761
1.4212246 0.4791909 0.56093466 -0.65459716 0.006009353 1.5187237 0.36075032 0.35472658
1.5786856 2.4204104 0.02741123 -0.18519816 -0.9255198 -0.44202623 0.24293666 -1.1664759
-0.15055086 -0.4090674 0.032466844 1.313863 -0.59268117 -0.28739735 -0.33235773 -0.021423448
-0.20134595 -1.1270506 0.2982944 0.28142413 -0.09070432 -2.6375287 0.7295831 -0.1736678
0.80189776 -1.1021239 0.033637132 0.007809541 0.6395407 -0.2772569 -0.16495647 0.3394802
0.029077046 2.244951 -0.23976156 1.2105143 -0.14716047 2.3354023 0.22356012 -0.07894848
0.37560582 0.13731764 -0.015023883 0.089745976 2.1636422 0.71865225 1.7001747 0.7099309
-0.055903923 0.20154893 1.2820694 0.17797232 -0.3527193 -0.36718455 2.1496358 0.31660938
-1.8529903 0.051523674 0.74663246 1.8876014 -0.27465844 -0.055558953 0.42024112 -0.6965991
1.5495925 -0.2343744 1.7597588 0.97179747 -0.666429 -0.6581377 0.016169446 0.18266022
0.46026173 1.8162054 0.6728821 -0.99892765 -0.5729587 0.5314667 0.37395883 0.3021688

l1.bias f4 [8]
00000000: 9e4c 7c3f 51ed 133f dada 2b3f 72bb 523f
00000010: 54c3 833e 10d5 373f b469 3e3f 32e5 b73f
0.9855441 0.5778399 0.67130816 0.8231727 0.2573496 0.7180948 0.7438004 1.436682

l2.weight f4 [8, 8]
00000000: 0628 0840 ae57 c3be 936a 2540 8e79 783f
00000010: b7a8 42bf db82 adbf e6df 6fbe 80d1 cf3f
00000020: 311d 89bf 654c c33d 2caf c53f ebf3 113f
00000030: 4612 203f a0af 1cbf 1df7 8d3d 8013 513f
00000040: ff56 603f bacf b2be 8b76 56bf 71e7 193f
00000050: 776a a0bf c0eb 3b40 638e 603f 4454 8e3f
00000060: 5034 45bf deec a33f ab9c 89bf 853a d53e
00000070: 4475 dd3f d91a b5bf 95c1 483f 1e01 b13f
00000080: 9740 c23e 4a5c e33f 35d7 7bbf 0970 2240
00000090: ec6e 923f f202 273f 1c9f 1ac0 14bf dbbd
000000a0: b6a4 bbbf 162e 483f a907 f43f 8a21 d6be
000000b0: 3c2d c9bd 8ccf a43f eca5 76bf 0e50 a33f
000000c0: 150e d93e 4349 0a40 db6d 31bf 1091 adbf
000000d0: dd2e 993f bc00 74be 3500 013f 2c29 b03f
000000e0: f8f1 0a39 2bc9 983e f8c3 b33e 102b c33f
000000f0: da9b 9d3f edf7 28be 443b f23f 4bf5 283d
2.1274428 -0.38152832 2.5846298 0.9706048 -0.7603869 -1.3555559 -0.23425254 1.6235809
-1.0712034 0.095360555 1.5444083 0.57012814 0.62527883 -0.6120548 0.06931899 0.8167038
0.87632746 -0.34924108 -0.8377463 0.60118777 -1.253249 2.936264 0.87717265 1.1119466
-0.7703295 1.2806661 -1.0750936 0.4164621 1.7301412 -1.4148818 0.7842038 1.3828466
0.37939903 1.7762539 -0.98375255 2.538088 1.1440101 0.6523887 -2.4159613 -0.10729805
-1.4659641 0.7819532 1.9064838 -0.41822463 -0.09823081 1.2875838 -0.96346927 1.2758806
0.42393556 2.1607215 -0.6930825 -1.3559895 1.1967427 -0.23828405 0.5039094 1.3762565
0.00013250846 0.2984098 0.3511045 1.5247517 1.2313187 -0.16500826 1.8924336 0.041249555

l2.bias f4 [8]
00000000: 6b16 4c3f d502 68bd 6f94 3d3f 6a3a c83e
00000010: baf2 a73e 8b18 bf3e 4d93 023f efba 0abf
0.7972171 -0.056643326 0.74054617 0.39107066 0.32802373 0.37323412 0.51006013 -0.5419149

l3.weight f4 [27, 8]
00000000: b4bf c93e a031 7cc0 5abe 9abf 6de5 3a3f
00000010: 79cc 713f cf47 9ec0 1f7d 143e b548 1cbe
00000020: e910 623e 3503 c9c0 6d48 0b3f 854c 55be
00000030: 9e9e a4be 8d12 24bf 9f0f 5e3f 2a3a 4bbf
00000040: c4dd f33e 2f47 c43d 1620 abbe 2b68 113f
00000050: 1876 1dbf 5968 d8bf d488 f5bd d082 153e
00000060: 6ca7 27bf 3d2f 84c0 beef b73e 64f7 c3bf
00000070: 8cac b23f 5313 8cc0 c7fd 98c0 aae3 2c3d
00000080: 9029 9a3e 945c b6be 0faa a03e b977 39bf
00000090: 628b 82bf 1384 313f 551d 90bd befa aabf
000000a0: dcb9 68bf 450d 7f3f 6516 32c0 98e7 103d
000000b0: 3320 963e eeb3 e13e 85f4 c5be eff2 c03e
000000c0: fb8a fb3e 73d1 8dc0 dde3 0f3f ad38 3cbf
000000d0: 3312 0abe 3c94 8e3b 3114 97bf 307d 423d
000000e0: 5b0c 1f3e 6f66 b4bf e224 cfbd 2a04 2b3f
000000f0: be14 abbf 4234 5cbf 14c5 4f3f dbc9 913e
00000100: 041b b33e 997f 033f dcb7 3cbf 3c2b 8abf
00000110: 7481 6a3f 4b07 4ec0 fd37 6fc0 6747 073c
00000120: 26a6 7ac0 dc4c a8bf 4869 51bf 4519 24bc
00000130: 44d2 543f 9205 5cbd 7f46 4e3f c1cd d53d
00000140: 38e1 1e3f 6c5e 313f cb8c 253f e821 abc0
00000150: b17e adc0 dc0d 093f d800 dfbf 26f6 353e
00000160: fe33 4bbf 7f04 9bc0 4b0b d63e c7ae 763e
00000170: 3613 aabf fede 413c a911 4b3f 7794 863e
00000180: e744 683f d4c8 abc0 1172 24bf 481e 68c0
00000190: 2252 1d3f 0a6f a3c0 8c20 18bf aa45 3ebc
000001a0: 35d2 21bf d4b0 6bc0 ea43 9c3e 3dd4 e6bd
000001b0: f986 113f fb1e 163d b1ae 5dbf ad39 ad3e
000001c0: 4645 69be caec 713e 2460 9e3e c057 bdbe
000001d0: 5fba 24bf 149e 353f 9364 10bf 7c4e c0bd
000001e0: a9ea d3bc 76cd d33e 2849 68bf c600 c73f
000001f0: 33a0 84c0 d697 173f 6713 973f db3c b7c0
00000200: d297 e13f 87ac 763f 2d4a d7bf 600d f6bf
00000210: 6d2d 88c0 702e 0d3e 9efe 4abe 2a7d 3bc0
00000220: b89b 87c0 3de2 253e 126b 09be 1f46 213f
00000230: afb7 4abe df47 b03f f470 193f e992 7cc0
00000240: 3228 a43d e36a 87bf 62fa 81c0 75f9 e338
00000250: deae 863e dbc5 77bf e547 5b3f 47b2 973e
00000260: fae3 51bf 6c71 9fbf 7c12 49bf e121 e2be
00000270: 1060 37bf c00d 1cbf d472 d0be 3fd1 43bf
00000280: 3130 a6bd 2d4b 23bf f85f 88be 520b 9a3e
00000290: c5d4 573e 098e d43e b3eb 403e 517b 6dbf
000002a0: 6136 1fc0 78c6 16c0 b226 ba3f 3db7 75bf
000002b0: 7f8a 17c0 dc4f be3f f80f 34c0 c450 d6bf
000002c0: 7e0a 01c0 75fb 4c3e 6604 a1bf 1b3f 553f
000002d0: 23b5 3a3f cb02 babf 4375 01bf 2bcc 3c3f
000002e0: 8d79 07bf 1f7d 0b3f 1812 29c0 cb8f 843f
000002f0: 636f b3bf faf7 e43e 3f23 643f c558 dcbe
00000300: 0864 10c0 4e71 90c0 2cdb 523f 0633 91c0
00000310: ba14 8a3f a76b b83e 6240 493e 6da3 78c0
00000320: 1492 d43f a025 88c0 98e4 c8bd 5051 4fc0
00000330: 4d22 6bc0 c725 6fc0 18fe 583e 804c 58be
00000340: 48a7 133f 9006 95bf d378 8a3e 7296 ac3e
00000350: 081c 67c0 cf73 1bc0 b53a 8dc0 c208 d83f
0.3940407 -3.9405289 -1.2089341 0.73006326 0.94452626 -4.9462657 0.14500855 -0.1526211
0.22076763 -6.2816415 0.5440739 -0.20829971 -0.32152265 -0.64090806 0.86742586 -0.79385626
0.4763013 0.0958389 -0.33422917 0.5679957 -0.6150832 -1.6906844 -0.119889885 0.14600682
-0.6548984 -4.1307664 0.35925096 -1.5309873 1.3958907 -4.377359 -4.7809787 0.042209305
0.30109835 -0.35617507 0.31379744 -0.7244831 -1.0198786 0.69342154 -0.07036845 -1.335777
-0.909086 0.9962962 -2.7826169 0.035377115 0.2932144 0.44082588 -0.38663116 0.37685344
0.4912947 -4.4318175 0.56207067 -0.7352398 -0.13483505 0.004351167 -1.1803037 0.04748267
0.15532057 -1.409376 -0.10114457 0.6680323 -1.3365705 -0.8601724 0.8116009 0.28474316
0.3498155 0.51366574 -0.7371805 -1.0794444 0.9160378 -3.2191951 -3.7377923 0.00825677
-3.916391 -1.3148456 -0.8180127 -0.01001579 0.8313334 -0.05371625 0.8057632 0.10439635
0.62062407 0.692847 0.6466796 -5.347889 -5.4217153 0.5353677 -1.7422132 0.1776968
-0.7937621 -4.844299 0.4180549 0.2409011 -1.3287113 0.011832951 0.7932382 0.26285145
0.90730137 -5.368265 -0.6423655 -3.6268482 0.6145345 -5.1073046 -0.5942466 -0.011613289
-0.63211375 -3.6826677 0.30520564 -0.1127095 0.56846577 0.03665064 -0.8659468 0.33833066
-0.22780332 0.23625484 0.30932724 -0.3698101 -0.6434688 0.70944333 -0.56403464 -0.0938997
-0.02586873 0.41367692 -0.9073663 1.5547111 -4.1445556 0.5921606 1.1802796 -5.7261786
1.7624457 0.96357006 -1.6819512 -1.9222832 -4.255545 0.13787246 -0.19823691 -2.9295144
-4.2377586 0.16199584 -0.1341975 0.6299762 -0.19796632 1.3771933 0.5993798 -3.9464667
0.08015479 -1.0579494 -4.0618143 0.000108706685 0.26305288 -0.9678628 0.8565658 0.29628202
-0.8198849 -1.2456489 -0.7854383 -0.44166473 -0.71630955 -0.6095848 -0.40712607 -0.7649116
-0.081146605 -0.63786584 -0.26635718 0.30086762 0.21077259 0.41514614 0.18839912 -0.9276629
-2.487694 -2.3558636 1.4543059 -0.95982724 -2.3678281 1.4868121 -2.8134747 -1.6743398
-2.0162654 0.20017798 -1.2579467 0.83299416 0.7293264 -1.4532102 -0.5056955 0.73749036
-0.52919847 0.54487795 -2.6417294 1.0356382 -1.4018368 0.4472044 0.8911628 -0.43036476
-2.2561054 -4.513831 0.8236568 -4.5374784 1.0787575 0.36019632 0.19653466 -3.8849747
1.660708 -4.254593 -0.09809226 -3.239338 -3.6739686 -3.7366807 0.21190679 -0.21122932
0.57677126 -1.1642628 0.27045307 0.3370853 -3.611086 -2.4289434 -4.4134164 1.6877673

l3.bias f4 [27]
00000000: 4d92 e3be 987b d93e 24e1 9b3d 5b05 24bf
00000010: ce17 263e 3398 70bf bd6c 1c3e 94e4 493d
00000020: 5e9a 04bd 6cc5 8abe 28b7 643e 02e7 103e
00000030: 2e9c 16be 0a91 b5bd 946f 01bf 4a9d 243f
00000040: 089f 0c3f 0d03 993e 5115 3e3d adaf 4dbe
00000050: b193 56bf aaee 273f 35a5 babd df35 13bf
00000060: a65d 3e3e 11ec 4a3f bdc4 103f
-0.44447556 0.42477107 0.076113015 -0.6407067 0.16220018 -0.9398224 0.15275855 0.049290255
-0.03237378 -0.27103746 0.22335494 0.14150622 -0.14708015 -0.08865555 -0.5056088 0.64302504
0.5493016 0.2988514 0.046407048 -0.20086546 -0.8381911 0.6559855 -0.09113542 -0.57504076
0.18590412 0.7926646 0.565502
